{"class_name": "Model", "config": {"name": "model_3", "layers": [{"name": "input_3", "class_name": "InputLayer", "config": {"batch_input_shape": [null, 512, 512, 3], "dtype": "float32", "sparse": false, "name": "input_3"}, "inbound_nodes": []}, {"name": "zero_padding2d_43", "class_name": "ZeroPadding2D", "config": {"name": "zero_padding2d_43", "trainable": true, "dtype": "float32", "padding": [[3, 3], [3, 3]], "data_format": "channels_last"}, "inbound_nodes": [[["input_3", 0, 0, {}]]]}, {"name": "cp.resnet.conv1", "class_name": "Conv2D", "config": {"name": "cp.resnet.conv1", "trainable": true, "dtype": "float32", "filters": 64, "kernel_size": [7, 7], "strides": [2, 2], "padding": "valid", "data_format": "channels_last", "dilation_rate": [1, 1], "activation": "linear", "use_bias": false, "kernel_initializer": {"class_name": "VarianceScaling", "config": {"scale": 1.0, "mode": "fan_avg", "distribution": "uniform", "seed": null}}, "bias_initializer": {"class_name": "Zeros", "config": {}}, "kernel_regularizer": null, "bias_regularizer": null, "activity_regularizer": null, "kernel_constraint": null, "bias_constraint": null}, "inbound_nodes": [[["zero_padding2d_43", 0, 0, {}]]]}, {"name": "cp.resnet.bn1", "class_name": "BatchNormalization", "config": {"name": "cp.resnet.bn1", "trainable": true, "dtype": "float32", "axis": -1, "momentum": 0.99, "epsilon": 1e-05, "center": true, "scale": true, "beta_initializer": {"class_name": "Zeros", "config": {}}, "gamma_initializer": {"class_name": "Ones", "config": {}}, "moving_mean_initializer": {"class_name": "Zeros", "config": {}}, "moving_variance_initializer": {"class_name": "Ones", "config": {}}, "beta_regularizer": null, "gamma_regularizer": null, "beta_constraint": null, "gamma_constraint": null}, "inbound_nodes": [[["cp.resnet.conv1", 0, 0, {}]]]}, {"name": "activation_57", "class_name": "Activation", "config": {"name": "activation_57", "trainable": true, "dtype": "float32", "activation": "relu"}, "inbound_nodes": [[["cp.resnet.bn1", 0, 0, {}]]]}, {"name": "zero_padding2d_44", "class_name": "ZeroPadding2D", "config": {"name": "zero_padding2d_44", "trainable": true, "dtype": "float32", "padding": [[1, 1], [1, 1]], "data_format": "channels_last"}, "inbound_nodes": [[["activation_57", 0, 0, {}]]]}, {"name": "max_pooling2d_3", "class_name": "MaxPooling2D", "config": {"name": "max_pooling2d_3", "trainable": true, "dtype": "float32", "pool_size": [3, 3], "padding": "valid", "strides": [2, 2], "data_format": "channels_last"}, "inbound_nodes": [[["zero_padding2d_44", 0, 0, {}]]]}, {"name": "zero_padding2d_45", "class_name": "ZeroPadding2D", "config": {"name": "zero_padding2d_45", "trainable": true, "dtype": "float32", "padding": [[1, 1], [1, 1]], "data_format": "channels_last"}, "inbound_nodes": [[["max_pooling2d_3", 0, 0, {}]]]}, {"name": "cp.resnet.layer1.0.conv1", "class_name": "Conv2D", "config": {"name": "cp.resnet.layer1.0.conv1", "trainable": true, "dtype": "float32", "filters": 64, "kernel_size": [3, 3], "strides": [1, 1], "padding": "valid", "data_format": "channels_last", "dilation_rate": [1, 1], "activation": "linear", "use_bias": false, "kernel_initializer": {"class_name": "VarianceScaling", "config": {"scale": 1.0, "mode": "fan_avg", "distribution": "uniform", "seed": null}}, "bias_initializer": {"class_name": "Zeros", "config": {}}, "kernel_regularizer": null, "bias_regularizer": null, "activity_regularizer": null, "kernel_constraint": null, "bias_constraint": null}, "inbound_nodes": [[["zero_padding2d_45", 0, 0, {}]]]}, {"name": "cp.resnet.layer1.0.bn1", "class_name": "BatchNormalization", "config": {"name": "cp.resnet.layer1.0.bn1", "trainable": true, "dtype": "float32", "axis": -1, "momentum": 0.99, "epsilon": 1e-05, "center": true, "scale": true, "beta_initializer": {"class_name": "Zeros", "config": {}}, "gamma_initializer": {"class_name": "Ones", "config": {}}, "moving_mean_initializer": {"class_name": "Zeros", "config": {}}, "moving_variance_initializer": {"class_name": "Ones", "config": {}}, "beta_regularizer": null, "gamma_regularizer": null, "beta_constraint": null, "gamma_constraint": null}, "inbound_nodes": [[["cp.resnet.layer1.0.conv1", 0, 0, {}]]]}, {"name": "activation_58", "class_name": "Activation", "config": {"name": "activation_58", "trainable": true, "dtype": "float32", "activation": "relu"}, "inbound_nodes": [[["cp.resnet.layer1.0.bn1", 0, 0, {}]]]}, {"name": "zero_padding2d_46", "class_name": "ZeroPadding2D", "config": {"name": "zero_padding2d_46", "trainable": true, "dtype": "float32", "padding": [[1, 1], [1, 1]], "data_format": "channels_last"}, "inbound_nodes": [[["activation_58", 0, 0, {}]]]}, {"name": "cp.resnet.layer1.0.conv2", "class_name": "Conv2D", "config": {"name": "cp.resnet.layer1.0.conv2", "trainable": true, "dtype": "float32", "filters": 64, "kernel_size": [3, 3], "strides": [1, 1], "padding": "valid", "data_format": "channels_last", "dilation_rate": [1, 1], "activation": "linear", "use_bias": false, "kernel_initializer": {"class_name": "VarianceScaling", "config": {"scale": 1.0, "mode": "fan_avg", "distribution": "uniform", "seed": null}}, "bias_initializer": {"class_name": "Zeros", "config": {}}, "kernel_regularizer": null, "bias_regularizer": null, "activity_regularizer": null, "kernel_constraint": null, "bias_constraint": null}, "inbound_nodes": [[["zero_padding2d_46", 0, 0, {}]]]}, {"name": "cp.resnet.layer1.0.bn2", "class_name": "BatchNormalization", "config": {"name": "cp.resnet.layer1.0.bn2", "trainable": true, "dtype": "float32", "axis": -1, "momentum": 0.99, "epsilon": 1e-05, "center": true, "scale": true, "beta_initializer": {"class_name": "Zeros", "config": {}}, "gamma_initializer": {"class_name": "Ones", "config": {}}, "moving_mean_initializer": {"class_name": "Zeros", "config": {}}, "moving_variance_initializer": {"class_name": "Ones", "config": {}}, "beta_regularizer": null, "gamma_regularizer": null, "beta_constraint": null, "gamma_constraint": null}, "inbound_nodes": [[["cp.resnet.layer1.0.conv2", 0, 0, {}]]]}, {"name": "add_19", "class_name": "Add", "config": {"name": "add_19", "trainable": true, "dtype": "float32"}, "inbound_nodes": [[["cp.resnet.layer1.0.bn2", 0, 0, {}], ["max_pooling2d_3", 0, 0, {}]]]}, {"name": "activation_59", "class_name": "Activation", "config": {"name": "activation_59", "trainable": true, "dtype": "float32", "activation": "relu"}, "inbound_nodes": [[["add_19", 0, 0, {}]]]}, {"name": "zero_padding2d_47", "class_name": "ZeroPadding2D", "config": {"name": "zero_padding2d_47", "trainable": true, "dtype": "float32", "padding": [[1, 1], [1, 1]], "data_format": "channels_last"}, "inbound_nodes": [[["activation_59", 0, 0, {}]]]}, {"name": "cp.resnet.layer1.1.conv1", "class_name": "Conv2D", "config": {"name": "cp.resnet.layer1.1.conv1", "trainable": true, "dtype": "float32", "filters": 64, "kernel_size": [3, 3], "strides": [1, 1], "padding": "valid", "data_format": "channels_last", "dilation_rate": [1, 1], "activation": "linear", "use_bias": false, "kernel_initializer": {"class_name": "VarianceScaling", "config": {"scale": 1.0, "mode": "fan_avg", "distribution": "uniform", "seed": null}}, "bias_initializer": {"class_name": "Zeros", "config": {}}, "kernel_regularizer": null, "bias_regularizer": null, "activity_regularizer": null, "kernel_constraint": null, "bias_constraint": null}, "inbound_nodes": [[["zero_padding2d_47", 0, 0, {}]]]}, {"name": "cp.resnet.layer1.1.bn1", "class_name": "BatchNormalization", "config": {"name": "cp.resnet.layer1.1.bn1", "trainable": true, "dtype": "float32", "axis": -1, "momentum": 0.99, "epsilon": 1e-05, "center": true, "scale": true, "beta_initializer": {"class_name": "Zeros", "config": {}}, "gamma_initializer": {"class_name": "Ones", "config": {}}, "moving_mean_initializer": {"class_name": "Zeros", "config": {}}, "moving_variance_initializer": {"class_name": "Ones", "config": {}}, "beta_regularizer": null, "gamma_regularizer": null, "beta_constraint": null, "gamma_constraint": null}, "inbound_nodes": [[["cp.resnet.layer1.1.conv1", 0, 0, {}]]]}, {"name": "activation_60", "class_name": "Activation", "config": {"name": "activation_60", "trainable": true, "dtype": "float32", "activation": "relu"}, "inbound_nodes": [[["cp.resnet.layer1.1.bn1", 0, 0, {}]]]}, {"name": "zero_padding2d_48", "class_name": "ZeroPadding2D", "config": {"name": "zero_padding2d_48", "trainable": true, "dtype": "float32", "padding": [[1, 1], [1, 1]], "data_format": "channels_last"}, "inbound_nodes": [[["activation_60", 0, 0, {}]]]}, {"name": "cp.resnet.layer1.1.conv2", "class_name": "Conv2D", "config": {"name": "cp.resnet.layer1.1.conv2", "trainable": true, "dtype": "float32", "filters": 64, "kernel_size": [3, 3], "strides": [1, 1], "padding": "valid", "data_format": "channels_last", "dilation_rate": [1, 1], "activation": "linear", "use_bias": false, "kernel_initializer": {"class_name": "VarianceScaling", "config": {"scale": 1.0, "mode": "fan_avg", "distribution": "uniform", "seed": null}}, "bias_initializer": {"class_name": "Zeros", "config": {}}, "kernel_regularizer": null, "bias_regularizer": null, "activity_regularizer": null, "kernel_constraint": null, "bias_constraint": null}, "inbound_nodes": [[["zero_padding2d_48", 0, 0, {}]]]}, {"name": "cp.resnet.layer1.1.bn2", "class_name": "BatchNormalization", "config": {"name": "cp.resnet.layer1.1.bn2", "trainable": true, "dtype": "float32", "axis": -1, "momentum": 0.99, "epsilon": 1e-05, "center": true, "scale": true, "beta_initializer": {"class_name": "Zeros", "config": {}}, "gamma_initializer": {"class_name": "Ones", "config": {}}, "moving_mean_initializer": {"class_name": "Zeros", "config": {}}, "moving_variance_initializer": {"class_name": "Ones", "config": {}}, "beta_regularizer": null, "gamma_regularizer": null, "beta_constraint": null, "gamma_constraint": null}, "inbound_nodes": [[["cp.resnet.layer1.1.conv2", 0, 0, {}]]]}, {"name": "add_20", "class_name": "Add", "config": {"name": "add_20", "trainable": true, "dtype": "float32"}, "inbound_nodes": [[["cp.resnet.layer1.1.bn2", 0, 0, {}], ["activation_59", 0, 0, {}]]]}, {"name": "activation_61", "class_name": "Activation", "config": {"name": "activation_61", "trainable": true, "dtype": "float32", "activation": "relu"}, "inbound_nodes": [[["add_20", 0, 0, {}]]]}, {"name": "zero_padding2d_49", "class_name": "ZeroPadding2D", "config": {"name": "zero_padding2d_49", "trainable": true, "dtype": "float32", "padding": [[1, 1], [1, 1]], "data_format": "channels_last"}, "inbound_nodes": [[["activation_61", 0, 0, {}]]]}, {"name": "cp.resnet.layer2.0.conv1", "class_name": "Conv2D", "config": {"name": "cp.resnet.layer2.0.conv1", "trainable": true, "dtype": "float32", "filters": 128, "kernel_size": [3, 3], "strides": [2, 2], "padding": "valid", "data_format": "channels_last", "dilation_rate": [1, 1], "activation": "linear", "use_bias": false, "kernel_initializer": {"class_name": "VarianceScaling", "config": {"scale": 1.0, "mode": "fan_avg", "distribution": "uniform", "seed": null}}, "bias_initializer": {"class_name": "Zeros", "config": {}}, "kernel_regularizer": null, "bias_regularizer": null, "activity_regularizer": null, "kernel_constraint": null, "bias_constraint": null}, "inbound_nodes": [[["zero_padding2d_49", 0, 0, {}]]]}, {"name": "cp.resnet.layer2.0.bn1", "class_name": "BatchNormalization", "config": {"name": "cp.resnet.layer2.0.bn1", "trainable": true, "dtype": "float32", "axis": -1, "momentum": 0.99, "epsilon": 1e-05, "center": true, "scale": true, "beta_initializer": {"class_name": "Zeros", "config": {}}, "gamma_initializer": {"class_name": "Ones", "config": {}}, "moving_mean_initializer": {"class_name": "Zeros", "config": {}}, "moving_variance_initializer": {"class_name": "Ones", "config": {}}, "beta_regularizer": null, "gamma_regularizer": null, "beta_constraint": null, "gamma_constraint": null}, "inbound_nodes": [[["cp.resnet.layer2.0.conv1", 0, 0, {}]]]}, {"name": "activation_62", "class_name": "Activation", "config": {"name": "activation_62", "trainable": true, "dtype": "float32", "activation": "relu"}, "inbound_nodes": [[["cp.resnet.layer2.0.bn1", 0, 0, {}]]]}, {"name": "zero_padding2d_50", "class_name": "ZeroPadding2D", "config": {"name": "zero_padding2d_50", "trainable": true, "dtype": "float32", "padding": [[1, 1], [1, 1]], "data_format": "channels_last"}, "inbound_nodes": [[["activation_62", 0, 0, {}]]]}, {"name": "cp.resnet.layer2.0.conv2", "class_name": "Conv2D", "config": {"name": "cp.resnet.layer2.0.conv2", "trainable": true, "dtype": "float32", "filters": 128, "kernel_size": [3, 3], "strides": [1, 1], "padding": "valid", "data_format": "channels_last", "dilation_rate": [1, 1], "activation": "linear", "use_bias": false, "kernel_initializer": {"class_name": "VarianceScaling", "config": {"scale": 1.0, "mode": "fan_avg", "distribution": "uniform", "seed": null}}, "bias_initializer": {"class_name": "Zeros", "config": {}}, "kernel_regularizer": null, "bias_regularizer": null, "activity_regularizer": null, "kernel_constraint": null, "bias_constraint": null}, "inbound_nodes": [[["zero_padding2d_50", 0, 0, {}]]]}, {"name": "cp.resnet.layer2.0.downsample.0", "class_name": "Conv2D", "config": {"name": "cp.resnet.layer2.0.downsample.0", "trainable": true, "dtype": "float32", "filters": 128, "kernel_size": [1, 1], "strides": [2, 2], "padding": "valid", "data_format": "channels_last", "dilation_rate": [1, 1], "activation": "linear", "use_bias": false, "kernel_initializer": {"class_name": "VarianceScaling", "config": {"scale": 1.0, "mode": "fan_avg", "distribution": "uniform", "seed": null}}, "bias_initializer": {"class_name": "Zeros", "config": {}}, "kernel_regularizer": null, "bias_regularizer": null, "activity_regularizer": null, "kernel_constraint": null, "bias_constraint": null}, "inbound_nodes": [[["activation_61", 0, 0, {}]]]}, {"name": "cp.resnet.layer2.0.bn2", "class_name": "BatchNormalization", "config": {"name": "cp.resnet.layer2.0.bn2", "trainable": true, "dtype": "float32", "axis": -1, "momentum": 0.99, "epsilon": 1e-05, "center": true, "scale": true, "beta_initializer": {"class_name": "Zeros", "config": {}}, "gamma_initializer": {"class_name": "Ones", "config": {}}, "moving_mean_initializer": {"class_name": "Zeros", "config": {}}, "moving_variance_initializer": {"class_name": "Ones", "config": {}}, "beta_regularizer": null, "gamma_regularizer": null, "beta_constraint": null, "gamma_constraint": null}, "inbound_nodes": [[["cp.resnet.layer2.0.conv2", 0, 0, {}]]]}, {"name": "cp.resnet.layer2.0.downsample.1", "class_name": "BatchNormalization", "config": {"name": "cp.resnet.layer2.0.downsample.1", "trainable": true, "dtype": "float32", "axis": -1, "momentum": 0.99, "epsilon": 1e-05, "center": true, "scale": true, "beta_initializer": {"class_name": "Zeros", "config": {}}, "gamma_initializer": {"class_name": "Ones", "config": {}}, "moving_mean_initializer": {"class_name": "Zeros", "config": {}}, "moving_variance_initializer": {"class_name": "Ones", "config": {}}, "beta_regularizer": null, "gamma_regularizer": null, "beta_constraint": null, "gamma_constraint": null}, "inbound_nodes": [[["cp.resnet.layer2.0.downsample.0", 0, 0, {}]]]}, {"name": "add_21", "class_name": "Add", "config": {"name": "add_21", "trainable": true, "dtype": "float32"}, "inbound_nodes": [[["cp.resnet.layer2.0.bn2", 0, 0, {}], ["cp.resnet.layer2.0.downsample.1", 0, 0, {}]]]}, {"name": "activation_63", "class_name": "Activation", "config": {"name": "activation_63", "trainable": true, "dtype": "float32", "activation": "relu"}, "inbound_nodes": [[["add_21", 0, 0, {}]]]}, {"name": "zero_padding2d_51", "class_name": "ZeroPadding2D", "config": {"name": "zero_padding2d_51", "trainable": true, "dtype": "float32", "padding": [[1, 1], [1, 1]], "data_format": "channels_last"}, "inbound_nodes": [[["activation_63", 0, 0, {}]]]}, {"name": "cp.resnet.layer2.1.conv1", "class_name": "Conv2D", "config": {"name": "cp.resnet.layer2.1.conv1", "trainable": true, "dtype": "float32", "filters": 128, "kernel_size": [3, 3], "strides": [1, 1], "padding": "valid", "data_format": "channels_last", "dilation_rate": [1, 1], "activation": "linear", "use_bias": false, "kernel_initializer": {"class_name": "VarianceScaling", "config": {"scale": 1.0, "mode": "fan_avg", "distribution": "uniform", "seed": null}}, "bias_initializer": {"class_name": "Zeros", "config": {}}, "kernel_regularizer": null, "bias_regularizer": null, "activity_regularizer": null, "kernel_constraint": null, "bias_constraint": null}, "inbound_nodes": [[["zero_padding2d_51", 0, 0, {}]]]}, {"name": "cp.resnet.layer2.1.bn1", "class_name": "BatchNormalization", "config": {"name": "cp.resnet.layer2.1.bn1", "trainable": true, "dtype": "float32", "axis": -1, "momentum": 0.99, "epsilon": 1e-05, "center": true, "scale": true, "beta_initializer": {"class_name": "Zeros", "config": {}}, "gamma_initializer": {"class_name": "Ones", "config": {}}, "moving_mean_initializer": {"class_name": "Zeros", "config": {}}, "moving_variance_initializer": {"class_name": "Ones", "config": {}}, "beta_regularizer": null, "gamma_regularizer": null, "beta_constraint": null, "gamma_constraint": null}, "inbound_nodes": [[["cp.resnet.layer2.1.conv1", 0, 0, {}]]]}, {"name": "activation_64", "class_name": "Activation", "config": {"name": "activation_64", "trainable": true, "dtype": "float32", "activation": "relu"}, "inbound_nodes": [[["cp.resnet.layer2.1.bn1", 0, 0, {}]]]}, {"name": "zero_padding2d_52", "class_name": "ZeroPadding2D", "config": {"name": "zero_padding2d_52", "trainable": true, "dtype": "float32", "padding": [[1, 1], [1, 1]], "data_format": "channels_last"}, "inbound_nodes": [[["activation_64", 0, 0, {}]]]}, {"name": "cp.resnet.layer2.1.conv2", "class_name": "Conv2D", "config": {"name": "cp.resnet.layer2.1.conv2", "trainable": true, "dtype": "float32", "filters": 128, "kernel_size": [3, 3], "strides": [1, 1], "padding": "valid", "data_format": "channels_last", "dilation_rate": [1, 1], "activation": "linear", "use_bias": false, "kernel_initializer": {"class_name": "VarianceScaling", "config": {"scale": 1.0, "mode": "fan_avg", "distribution": "uniform", "seed": null}}, "bias_initializer": {"class_name": "Zeros", "config": {}}, "kernel_regularizer": null, "bias_regularizer": null, "activity_regularizer": null, "kernel_constraint": null, "bias_constraint": null}, "inbound_nodes": [[["zero_padding2d_52", 0, 0, {}]]]}, {"name": "cp.resnet.layer2.1.bn2", "class_name": "BatchNormalization", "config": {"name": "cp.resnet.layer2.1.bn2", "trainable": true, "dtype": "float32", "axis": -1, "momentum": 0.99, "epsilon": 1e-05, "center": true, "scale": true, "beta_initializer": {"class_name": "Zeros", "config": {}}, "gamma_initializer": {"class_name": "Ones", "config": {}}, "moving_mean_initializer": {"class_name": "Zeros", "config": {}}, "moving_variance_initializer": {"class_name": "Ones", "config": {}}, "beta_regularizer": null, "gamma_regularizer": null, "beta_constraint": null, "gamma_constraint": null}, "inbound_nodes": [[["cp.resnet.layer2.1.conv2", 0, 0, {}]]]}, {"name": "add_22", "class_name": "Add", "config": {"name": "add_22", "trainable": true, "dtype": "float32"}, "inbound_nodes": [[["cp.resnet.layer2.1.bn2", 0, 0, {}], ["activation_63", 0, 0, {}]]]}, {"name": "activation_65", "class_name": "Activation", "config": {"name": "activation_65", "trainable": true, "dtype": "float32", "activation": "relu"}, "inbound_nodes": [[["add_22", 0, 0, {}]]]}, {"name": "zero_padding2d_53", "class_name": "ZeroPadding2D", "config": {"name": "zero_padding2d_53", "trainable": true, "dtype": "float32", "padding": [[1, 1], [1, 1]], "data_format": "channels_last"}, "inbound_nodes": [[["activation_65", 0, 0, {}]]]}, {"name": "cp.resnet.layer3.0.conv1", "class_name": "Conv2D", "config": {"name": "cp.resnet.layer3.0.conv1", "trainable": true, "dtype": "float32", "filters": 256, "kernel_size": [3, 3], "strides": [2, 2], "padding": "valid", "data_format": "channels_last", "dilation_rate": [1, 1], "activation": "linear", "use_bias": false, "kernel_initializer": {"class_name": "VarianceScaling", "config": {"scale": 1.0, "mode": "fan_avg", "distribution": "uniform", "seed": null}}, "bias_initializer": {"class_name": "Zeros", "config": {}}, "kernel_regularizer": null, "bias_regularizer": null, "activity_regularizer": null, "kernel_constraint": null, "bias_constraint": null}, "inbound_nodes": [[["zero_padding2d_53", 0, 0, {}]]]}, {"name": "cp.resnet.layer3.0.bn1", "class_name": "BatchNormalization", "config": {"name": "cp.resnet.layer3.0.bn1", "trainable": true, "dtype": "float32", "axis": -1, "momentum": 0.99, "epsilon": 1e-05, "center": true, "scale": true, "beta_initializer": {"class_name": "Zeros", "config": {}}, "gamma_initializer": {"class_name": "Ones", "config": {}}, "moving_mean_initializer": {"class_name": "Zeros", "config": {}}, "moving_variance_initializer": {"class_name": "Ones", "config": {}}, "beta_regularizer": null, "gamma_regularizer": null, "beta_constraint": null, "gamma_constraint": null}, "inbound_nodes": [[["cp.resnet.layer3.0.conv1", 0, 0, {}]]]}, {"name": "activation_66", "class_name": "Activation", "config": {"name": "activation_66", "trainable": true, "dtype": "float32", "activation": "relu"}, "inbound_nodes": [[["cp.resnet.layer3.0.bn1", 0, 0, {}]]]}, {"name": "zero_padding2d_54", "class_name": "ZeroPadding2D", "config": {"name": "zero_padding2d_54", "trainable": true, "dtype": "float32", "padding": [[1, 1], [1, 1]], "data_format": "channels_last"}, "inbound_nodes": [[["activation_66", 0, 0, {}]]]}, {"name": "cp.resnet.layer3.0.conv2", "class_name": "Conv2D", "config": {"name": "cp.resnet.layer3.0.conv2", "trainable": true, "dtype": "float32", "filters": 256, "kernel_size": [3, 3], "strides": [1, 1], "padding": "valid", "data_format": "channels_last", "dilation_rate": [1, 1], "activation": "linear", "use_bias": false, "kernel_initializer": {"class_name": "VarianceScaling", "config": {"scale": 1.0, "mode": "fan_avg", "distribution": "uniform", "seed": null}}, "bias_initializer": {"class_name": "Zeros", "config": {}}, "kernel_regularizer": null, "bias_regularizer": null, "activity_regularizer": null, "kernel_constraint": null, "bias_constraint": null}, "inbound_nodes": [[["zero_padding2d_54", 0, 0, {}]]]}, {"name": "cp.resnet.layer3.0.downsample.0", "class_name": "Conv2D", "config": {"name": "cp.resnet.layer3.0.downsample.0", "trainable": true, "dtype": "float32", "filters": 256, "kernel_size": [1, 1], "strides": [2, 2], "padding": "valid", "data_format": "channels_last", "dilation_rate": [1, 1], "activation": "linear", "use_bias": false, "kernel_initializer": {"class_name": "VarianceScaling", "config": {"scale": 1.0, "mode": "fan_avg", "distribution": "uniform", "seed": null}}, "bias_initializer": {"class_name": "Zeros", "config": {}}, "kernel_regularizer": null, "bias_regularizer": null, "activity_regularizer": null, "kernel_constraint": null, "bias_constraint": null}, "inbound_nodes": [[["activation_65", 0, 0, {}]]]}, {"name": "cp.resnet.layer3.0.bn2", "class_name": "BatchNormalization", "config": {"name": "cp.resnet.layer3.0.bn2", "trainable": true, "dtype": "float32", "axis": -1, "momentum": 0.99, "epsilon": 1e-05, "center": true, "scale": true, "beta_initializer": {"class_name": "Zeros", "config": {}}, "gamma_initializer": {"class_name": "Ones", "config": {}}, "moving_mean_initializer": {"class_name": "Zeros", "config": {}}, "moving_variance_initializer": {"class_name": "Ones", "config": {}}, "beta_regularizer": null, "gamma_regularizer": null, "beta_constraint": null, "gamma_constraint": null}, "inbound_nodes": [[["cp.resnet.layer3.0.conv2", 0, 0, {}]]]}, {"name": "cp.resnet.layer3.0.downsample.1", "class_name": "BatchNormalization", "config": {"name": "cp.resnet.layer3.0.downsample.1", "trainable": true, "dtype": "float32", "axis": -1, "momentum": 0.99, "epsilon": 1e-05, "center": true, "scale": true, "beta_initializer": {"class_name": "Zeros", "config": {}}, "gamma_initializer": {"class_name": "Ones", "config": {}}, "moving_mean_initializer": {"class_name": "Zeros", "config": {}}, "moving_variance_initializer": {"class_name": "Ones", "config": {}}, "beta_regularizer": null, "gamma_regularizer": null, "beta_constraint": null, "gamma_constraint": null}, "inbound_nodes": [[["cp.resnet.layer3.0.downsample.0", 0, 0, {}]]]}, {"name": "add_23", "class_name": "Add", "config": {"name": "add_23", "trainable": true, "dtype": "float32"}, "inbound_nodes": [[["cp.resnet.layer3.0.bn2", 0, 0, {}], ["cp.resnet.layer3.0.downsample.1", 0, 0, {}]]]}, {"name": "activation_67", "class_name": "Activation", "config": {"name": "activation_67", "trainable": true, "dtype": "float32", "activation": "relu"}, "inbound_nodes": [[["add_23", 0, 0, {}]]]}, {"name": "zero_padding2d_55", "class_name": "ZeroPadding2D", "config": {"name": "zero_padding2d_55", "trainable": true, "dtype": "float32", "padding": [[1, 1], [1, 1]], "data_format": "channels_last"}, "inbound_nodes": [[["activation_67", 0, 0, {}]]]}, {"name": "cp.resnet.layer3.1.conv1", "class_name": "Conv2D", "config": {"name": "cp.resnet.layer3.1.conv1", "trainable": true, "dtype": "float32", "filters": 256, "kernel_size": [3, 3], "strides": [1, 1], "padding": "valid", "data_format": "channels_last", "dilation_rate": [1, 1], "activation": "linear", "use_bias": false, "kernel_initializer": {"class_name": "VarianceScaling", "config": {"scale": 1.0, "mode": "fan_avg", "distribution": "uniform", "seed": null}}, "bias_initializer": {"class_name": "Zeros", "config": {}}, "kernel_regularizer": null, "bias_regularizer": null, "activity_regularizer": null, "kernel_constraint": null, "bias_constraint": null}, "inbound_nodes": [[["zero_padding2d_55", 0, 0, {}]]]}, {"name": "cp.resnet.layer3.1.bn1", "class_name": "BatchNormalization", "config": {"name": "cp.resnet.layer3.1.bn1", "trainable": true, "dtype": "float32", "axis": -1, "momentum": 0.99, "epsilon": 1e-05, "center": true, "scale": true, "beta_initializer": {"class_name": "Zeros", "config": {}}, "gamma_initializer": {"class_name": "Ones", "config": {}}, "moving_mean_initializer": {"class_name": "Zeros", "config": {}}, "moving_variance_initializer": {"class_name": "Ones", "config": {}}, "beta_regularizer": null, "gamma_regularizer": null, "beta_constraint": null, "gamma_constraint": null}, "inbound_nodes": [[["cp.resnet.layer3.1.conv1", 0, 0, {}]]]}, {"name": "activation_68", "class_name": "Activation", "config": {"name": "activation_68", "trainable": true, "dtype": "float32", "activation": "relu"}, "inbound_nodes": [[["cp.resnet.layer3.1.bn1", 0, 0, {}]]]}, {"name": "zero_padding2d_56", "class_name": "ZeroPadding2D", "config": {"name": "zero_padding2d_56", "trainable": true, "dtype": "float32", "padding": [[1, 1], [1, 1]], "data_format": "channels_last"}, "inbound_nodes": [[["activation_68", 0, 0, {}]]]}, {"name": "cp.resnet.layer3.1.conv2", "class_name": "Conv2D", "config": {"name": "cp.resnet.layer3.1.conv2", "trainable": true, "dtype": "float32", "filters": 256, "kernel_size": [3, 3], "strides": [1, 1], "padding": "valid", "data_format": "channels_last", "dilation_rate": [1, 1], "activation": "linear", "use_bias": false, "kernel_initializer": {"class_name": "VarianceScaling", "config": {"scale": 1.0, "mode": "fan_avg", "distribution": "uniform", "seed": null}}, "bias_initializer": {"class_name": "Zeros", "config": {}}, "kernel_regularizer": null, "bias_regularizer": null, "activity_regularizer": null, "kernel_constraint": null, "bias_constraint": null}, "inbound_nodes": [[["zero_padding2d_56", 0, 0, {}]]]}, {"name": "cp.resnet.layer3.1.bn2", "class_name": "BatchNormalization", "config": {"name": "cp.resnet.layer3.1.bn2", "trainable": true, "dtype": "float32", "axis": -1, "momentum": 0.99, "epsilon": 1e-05, "center": true, "scale": true, "beta_initializer": {"class_name": "Zeros", "config": {}}, "gamma_initializer": {"class_name": "Ones", "config": {}}, "moving_mean_initializer": {"class_name": "Zeros", "config": {}}, "moving_variance_initializer": {"class_name": "Ones", "config": {}}, "beta_regularizer": null, "gamma_regularizer": null, "beta_constraint": null, "gamma_constraint": null}, "inbound_nodes": [[["cp.resnet.layer3.1.conv2", 0, 0, {}]]]}, {"name": "add_24", "class_name": "Add", "config": {"name": "add_24", "trainable": true, "dtype": "float32"}, "inbound_nodes": [[["cp.resnet.layer3.1.bn2", 0, 0, {}], ["activation_67", 0, 0, {}]]]}, {"name": "activation_69", "class_name": "Activation", "config": {"name": "activation_69", "trainable": true, "dtype": "float32", "activation": "relu"}, "inbound_nodes": [[["add_24", 0, 0, {}]]]}, {"name": "zero_padding2d_57", "class_name": "ZeroPadding2D", "config": {"name": "zero_padding2d_57", "trainable": true, "dtype": "float32", "padding": [[1, 1], [1, 1]], "data_format": "channels_last"}, "inbound_nodes": [[["activation_69", 0, 0, {}]]]}, {"name": "cp.resnet.layer4.0.conv1", "class_name": "Conv2D", "config": {"name": "cp.resnet.layer4.0.conv1", "trainable": true, "dtype": "float32", "filters": 512, "kernel_size": [3, 3], "strides": [2, 2], "padding": "valid", "data_format": "channels_last", "dilation_rate": [1, 1], "activation": "linear", "use_bias": false, "kernel_initializer": {"class_name": "VarianceScaling", "config": {"scale": 1.0, "mode": "fan_avg", "distribution": "uniform", "seed": null}}, "bias_initializer": {"class_name": "Zeros", "config": {}}, "kernel_regularizer": null, "bias_regularizer": null, "activity_regularizer": null, "kernel_constraint": null, "bias_constraint": null}, "inbound_nodes": [[["zero_padding2d_57", 0, 0, {}]]]}, {"name": "cp.resnet.layer4.0.bn1", "class_name": "BatchNormalization", "config": {"name": "cp.resnet.layer4.0.bn1", "trainable": true, "dtype": "float32", "axis": -1, "momentum": 0.99, "epsilon": 1e-05, "center": true, "scale": true, "beta_initializer": {"class_name": "Zeros", "config": {}}, "gamma_initializer": {"class_name": "Ones", "config": {}}, "moving_mean_initializer": {"class_name": "Zeros", "config": {}}, "moving_variance_initializer": {"class_name": "Ones", "config": {}}, "beta_regularizer": null, "gamma_regularizer": null, "beta_constraint": null, "gamma_constraint": null}, "inbound_nodes": [[["cp.resnet.layer4.0.conv1", 0, 0, {}]]]}, {"name": "activation_72", "class_name": "Activation", "config": {"name": "activation_72", "trainable": true, "dtype": "float32", "activation": "relu"}, "inbound_nodes": [[["cp.resnet.layer4.0.bn1", 0, 0, {}]]]}, {"name": "zero_padding2d_58", "class_name": "ZeroPadding2D", "config": {"name": "zero_padding2d_58", "trainable": true, "dtype": "float32", "padding": [[1, 1], [1, 1]], "data_format": "channels_last"}, "inbound_nodes": [[["activation_72", 0, 0, {}]]]}, {"name": "cp.resnet.layer4.0.conv2", "class_name": "Conv2D", "config": {"name": "cp.resnet.layer4.0.conv2", "trainable": true, "dtype": "float32", "filters": 512, "kernel_size": [3, 3], "strides": [1, 1], "padding": "valid", "data_format": "channels_last", "dilation_rate": [1, 1], "activation": "linear", "use_bias": false, "kernel_initializer": {"class_name": "VarianceScaling", "config": {"scale": 1.0, "mode": "fan_avg", "distribution": "uniform", "seed": null}}, "bias_initializer": {"class_name": "Zeros", "config": {}}, "kernel_regularizer": null, "bias_regularizer": null, "activity_regularizer": null, "kernel_constraint": null, "bias_constraint": null}, "inbound_nodes": [[["zero_padding2d_58", 0, 0, {}]]]}, {"name": "cp.resnet.layer4.0.downsample.0", "class_name": "Conv2D", "config": {"name": "cp.resnet.layer4.0.downsample.0", "trainable": true, "dtype": "float32", "filters": 512, "kernel_size": [1, 1], "strides": [2, 2], "padding": "valid", "data_format": "channels_last", "dilation_rate": [1, 1], "activation": "linear", "use_bias": false, "kernel_initializer": {"class_name": "VarianceScaling", "config": {"scale": 1.0, "mode": "fan_avg", "distribution": "uniform", "seed": null}}, "bias_initializer": {"class_name": "Zeros", "config": {}}, "kernel_regularizer": null, "bias_regularizer": null, "activity_regularizer": null, "kernel_constraint": null, "bias_constraint": null}, "inbound_nodes": [[["activation_69", 0, 0, {}]]]}, {"name": "cp.resnet.layer4.0.bn2", "class_name": "BatchNormalization", "config": {"name": "cp.resnet.layer4.0.bn2", "trainable": true, "dtype": "float32", "axis": -1, "momentum": 0.99, "epsilon": 1e-05, "center": true, "scale": true, "beta_initializer": {"class_name": "Zeros", "config": {}}, "gamma_initializer": {"class_name": "Ones", "config": {}}, "moving_mean_initializer": {"class_name": "Zeros", "config": {}}, "moving_variance_initializer": {"class_name": "Ones", "config": {}}, "beta_regularizer": null, "gamma_regularizer": null, "beta_constraint": null, "gamma_constraint": null}, "inbound_nodes": [[["cp.resnet.layer4.0.conv2", 0, 0, {}]]]}, {"name": "cp.resnet.layer4.0.downsample.1", "class_name": "BatchNormalization", "config": {"name": "cp.resnet.layer4.0.downsample.1", "trainable": true, "dtype": "float32", "axis": -1, "momentum": 0.99, "epsilon": 1e-05, "center": true, "scale": true, "beta_initializer": {"class_name": "Zeros", "config": {}}, "gamma_initializer": {"class_name": "Ones", "config": {}}, "moving_mean_initializer": {"class_name": "Zeros", "config": {}}, "moving_variance_initializer": {"class_name": "Ones", "config": {}}, "beta_regularizer": null, "gamma_regularizer": null, "beta_constraint": null, "gamma_constraint": null}, "inbound_nodes": [[["cp.resnet.layer4.0.downsample.0", 0, 0, {}]]]}, {"name": "add_25", "class_name": "Add", "config": {"name": "add_25", "trainable": true, "dtype": "float32"}, "inbound_nodes": [[["cp.resnet.layer4.0.bn2", 0, 0, {}], ["cp.resnet.layer4.0.downsample.1", 0, 0, {}]]]}, {"name": "activation_73", "class_name": "Activation", "config": {"name": "activation_73", "trainable": true, "dtype": "float32", "activation": "relu"}, "inbound_nodes": [[["add_25", 0, 0, {}]]]}, {"name": "zero_padding2d_59", "class_name": "ZeroPadding2D", "config": {"name": "zero_padding2d_59", "trainable": true, "dtype": "float32", "padding": [[1, 1], [1, 1]], "data_format": "channels_last"}, "inbound_nodes": [[["activation_73", 0, 0, {}]]]}, {"name": "cp.resnet.layer4.1.conv1", "class_name": "Conv2D", "config": {"name": "cp.resnet.layer4.1.conv1", "trainable": true, "dtype": "float32", "filters": 512, "kernel_size": [3, 3], "strides": [1, 1], "padding": "valid", "data_format": "channels_last", "dilation_rate": [1, 1], "activation": "linear", "use_bias": false, "kernel_initializer": {"class_name": "VarianceScaling", "config": {"scale": 1.0, "mode": "fan_avg", "distribution": "uniform", "seed": null}}, "bias_initializer": {"class_name": "Zeros", "config": {}}, "kernel_regularizer": null, "bias_regularizer": null, "activity_regularizer": null, "kernel_constraint": null, "bias_constraint": null}, "inbound_nodes": [[["zero_padding2d_59", 0, 0, {}]]]}, {"name": "cp.resnet.layer4.1.bn1", "class_name": "BatchNormalization", "config": {"name": "cp.resnet.layer4.1.bn1", "trainable": true, "dtype": "float32", "axis": -1, "momentum": 0.99, "epsilon": 1e-05, "center": true, "scale": true, "beta_initializer": {"class_name": "Zeros", "config": {}}, "gamma_initializer": {"class_name": "Ones", "config": {}}, "moving_mean_initializer": {"class_name": "Zeros", "config": {}}, "moving_variance_initializer": {"class_name": "Ones", "config": {}}, "beta_regularizer": null, "gamma_regularizer": null, "beta_constraint": null, "gamma_constraint": null}, "inbound_nodes": [[["cp.resnet.layer4.1.conv1", 0, 0, {}]]]}, {"name": "activation_74", "class_name": "Activation", "config": {"name": "activation_74", "trainable": true, "dtype": "float32", "activation": "relu"}, "inbound_nodes": [[["cp.resnet.layer4.1.bn1", 0, 0, {}]]]}, {"name": "zero_padding2d_60", "class_name": "ZeroPadding2D", "config": {"name": "zero_padding2d_60", "trainable": true, "dtype": "float32", "padding": [[1, 1], [1, 1]], "data_format": "channels_last"}, "inbound_nodes": [[["activation_74", 0, 0, {}]]]}, {"name": "cp.resnet.layer4.1.conv2", "class_name": "Conv2D", "config": {"name": "cp.resnet.layer4.1.conv2", "trainable": true, "dtype": "float32", "filters": 512, "kernel_size": [3, 3], "strides": [1, 1], "padding": "valid", "data_format": "channels_last", "dilation_rate": [1, 1], "activation": "linear", "use_bias": false, "kernel_initializer": {"class_name": "VarianceScaling", "config": {"scale": 1.0, "mode": "fan_avg", "distribution": "uniform", "seed": null}}, "bias_initializer": {"class_name": "Zeros", "config": {}}, "kernel_regularizer": null, "bias_regularizer": null, "activity_regularizer": null, "kernel_constraint": null, "bias_constraint": null}, "inbound_nodes": [[["zero_padding2d_60", 0, 0, {}]]]}, {"name": "cp.resnet.layer4.1.bn2", "class_name": "BatchNormalization", "config": {"name": "cp.resnet.layer4.1.bn2", "trainable": true, "dtype": "float32", "axis": -1, "momentum": 0.99, "epsilon": 1e-05, "center": true, "scale": true, "beta_initializer": {"class_name": "Zeros", "config": {}}, "gamma_initializer": {"class_name": "Ones", "config": {}}, "moving_mean_initializer": {"class_name": "Zeros", "config": {}}, "moving_variance_initializer": {"class_name": "Ones", "config": {}}, "beta_regularizer": null, "gamma_regularizer": null, "beta_constraint": null, "gamma_constraint": null}, "inbound_nodes": [[["cp.resnet.layer4.1.conv2", 0, 0, {}]]]}, {"name": "add_26", "class_name": "Add", "config": {"name": "add_26", "trainable": true, "dtype": "float32"}, "inbound_nodes": [[["cp.resnet.layer4.1.bn2", 0, 0, {}], ["activation_73", 0, 0, {}]]]}, {"name": "activation_75", "class_name": "Activation", "config": {"name": "activation_75", "trainable": true, "dtype": "float32", "activation": "relu"}, "inbound_nodes": [[["add_26", 0, 0, {}]]]}, {"name": "cp.arm32.conv.conv", "class_name": "Conv2D", "config": {"name": "cp.arm32.conv.conv", "trainable": true, "dtype": "float32", "filters": 128, "kernel_size": [3, 3], "strides": [1, 1], "padding": "same", "data_format": "channels_last", "dilation_rate": [1, 1], "activation": "linear", "use_bias": false, "kernel_initializer": {"class_name": "VarianceScaling", "config": {"scale": 1.0, "mode": "fan_avg", "distribution": "uniform", "seed": null}}, "bias_initializer": {"class_name": "Zeros", "config": {}}, "kernel_regularizer": null, "bias_regularizer": null, "activity_regularizer": null, "kernel_constraint": null, "bias_constraint": null}, "inbound_nodes": [[["activation_75", 0, 0, {}]]]}, {"name": "cp.arm32.conv.bn", "class_name": "BatchNormalization", "config": {"name": "cp.arm32.conv.bn", "trainable": true, "dtype": "float32", "axis": -1, "momentum": 0.99, "epsilon": 1e-05, "center": true, "scale": true, "beta_initializer": {"class_name": "Zeros", "config": {}}, "gamma_initializer": {"class_name": "Ones", "config": {}}, "moving_mean_initializer": {"class_name": "Zeros", "config": {}}, "moving_variance_initializer": {"class_name": "Ones", "config": {}}, "beta_regularizer": null, "gamma_regularizer": null, "beta_constraint": null, "gamma_constraint": null}, "inbound_nodes": [[["cp.arm32.conv.conv", 0, 0, {}]]]}, {"name": "activation_77", "class_name": "Activation", "config": {"name": "activation_77", "trainable": true, "dtype": "float32", "activation": "relu"}, "inbound_nodes": [[["cp.arm32.conv.bn", 0, 0, {}]]]}, {"name": "global_average_pooling2d_11", "class_name": "GlobalAveragePooling2D", "config": {"name": "global_average_pooling2d_11", "trainable": true, "dtype": "float32", "data_format": "channels_last"}, "inbound_nodes": [[["activation_77", 0, 0, {}]]]}, {"name": "global_average_pooling2d_10", "class_name": "GlobalAveragePooling2D", "config": {"name": "global_average_pooling2d_10", "trainable": true, "dtype": "float32", "data_format": "channels_last"}, "inbound_nodes": [[["activation_75", 0, 0, {}]]]}, {"name": "reshape_11", "class_name": "Reshape", "config": {"name": "reshape_11", "trainable": true, "dtype": "float32", "target_shape": [1, 1, 128]}, "inbound_nodes": [[["global_average_pooling2d_11", 0, 0, {}]]]}, {"name": "reshape_10", "class_name": "Reshape", "config": {"name": "reshape_10", "trainable": true, "dtype": "float32", "target_shape": [1, 1, 512]}, "inbound_nodes": [[["global_average_pooling2d_10", 0, 0, {}]]]}, {"name": "cp.arm32.conv_atten", "class_name": "Conv2D", "config": {"name": "cp.arm32.conv_atten", "trainable": true, "dtype": "float32", "filters": 128, "kernel_size": [1, 1], "strides": [1, 1], "padding": "valid", "data_format": "channels_last", "dilation_rate": [1, 1], "activation": "linear", "use_bias": false, "kernel_initializer": {"class_name": "VarianceScaling", "config": {"scale": 1.0, "mode": "fan_avg", "distribution": "uniform", "seed": null}}, "bias_initializer": {"class_name": "Zeros", "config": {}}, "kernel_regularizer": null, "bias_regularizer": null, "activity_regularizer": null, "kernel_constraint": null, "bias_constraint": null}, "inbound_nodes": [[["reshape_11", 0, 0, {}]]]}, {"name": "cp.conv_avg.conv", "class_name": "Conv2D", "config": {"name": "cp.conv_avg.conv", "trainable": true, "dtype": "float32", "filters": 128, "kernel_size": [1, 1], "strides": [1, 1], "padding": "valid", "data_format": "channels_last", "dilation_rate": [1, 1], "activation": "linear", "use_bias": false, "kernel_initializer": {"class_name": "VarianceScaling", "config": {"scale": 1.0, "mode": "fan_avg", "distribution": "uniform", "seed": null}}, "bias_initializer": {"class_name": "Zeros", "config": {}}, "kernel_regularizer": null, "bias_regularizer": null, "activity_regularizer": null, "kernel_constraint": null, "bias_constraint": null}, "inbound_nodes": [[["reshape_10", 0, 0, {}]]]}, {"name": "cp.arm16.conv.conv", "class_name": "Conv2D", "config": {"name": "cp.arm16.conv.conv", "trainable": true, "dtype": "float32", "filters": 128, "kernel_size": [3, 3], "strides": [1, 1], "padding": "same", "data_format": "channels_last", "dilation_rate": [1, 1], "activation": "linear", "use_bias": false, "kernel_initializer": {"class_name": "VarianceScaling", "config": {"scale": 1.0, "mode": "fan_avg", "distribution": "uniform", "seed": null}}, "bias_initializer": {"class_name": "Zeros", "config": {}}, "kernel_regularizer": null, "bias_regularizer": null, "activity_regularizer": null, "kernel_constraint": null, "bias_constraint": null}, "inbound_nodes": [[["activation_69", 0, 0, {}]]]}, {"name": "cp.arm32.bn_atten", "class_name": "BatchNormalization", "config": {"name": "cp.arm32.bn_atten", "trainable": true, "dtype": "float32", "axis": -1, "momentum": 0.99, "epsilon": 1e-05, "center": true, "scale": true, "beta_initializer": {"class_name": "Zeros", "config": {}}, "gamma_initializer": {"class_name": "Ones", "config": {}}, "moving_mean_initializer": {"class_name": "Zeros", "config": {}}, "moving_variance_initializer": {"class_name": "Ones", "config": {}}, "beta_regularizer": null, "gamma_regularizer": null, "beta_constraint": null, "gamma_constraint": null}, "inbound_nodes": [[["cp.arm32.conv_atten", 0, 0, {}]]]}, {"name": "cp.conv_avg.bn", "class_name": "BatchNormalization", "config": {"name": "cp.conv_avg.bn", "trainable": true, "dtype": "float32", "axis": -1, "momentum": 0.99, "epsilon": 1e-05, "center": true, "scale": true, "beta_initializer": {"class_name": "Zeros", "config": {}}, "gamma_initializer": {"class_name": "Ones", "config": {}}, "moving_mean_initializer": {"class_name": "Zeros", "config": {}}, "moving_variance_initializer": {"class_name": "Ones", "config": {}}, "beta_regularizer": null, "gamma_regularizer": null, "beta_constraint": null, "gamma_constraint": null}, "inbound_nodes": [[["cp.conv_avg.conv", 0, 0, {}]]]}, {"name": "cp.arm16.conv.bn", "class_name": "BatchNormalization", "config": {"name": "cp.arm16.conv.bn", "trainable": true, "dtype": "float32", "axis": -1, "momentum": 0.99, "epsilon": 1e-05, "center": true, "scale": true, "beta_initializer": {"class_name": "Zeros", "config": {}}, "gamma_initializer": {"class_name": "Ones", "config": {}}, "moving_mean_initializer": {"class_name": "Zeros", "config": {}}, "moving_variance_initializer": {"class_name": "Ones", "config": {}}, "beta_regularizer": null, "gamma_regularizer": null, "beta_constraint": null, "gamma_constraint": null}, "inbound_nodes": [[["cp.arm16.conv.conv", 0, 0, {}]]]}, {"name": "activation_78", "class_name": "Activation", "config": {"name": "activation_78", "trainable": true, "dtype": "float32", "activation": "sigmoid"}, "inbound_nodes": [[["cp.arm32.bn_atten", 0, 0, {}]]]}, {"name": "activation_76", "class_name": "Activation", "config": {"name": "activation_76", "trainable": true, "dtype": "float32", "activation": "relu"}, "inbound_nodes": [[["cp.conv_avg.bn", 0, 0, {}]]]}, {"name": "activation_70", "class_name": "Activation", "config": {"name": "activation_70", "trainable": true, "dtype": "float32", "activation": "relu"}, "inbound_nodes": [[["cp.arm16.conv.bn", 0, 0, {}]]]}, {"name": "multiply_8", "class_name": "Multiply", "config": {"name": "multiply_8", "trainable": true, "dtype": "float32"}, "inbound_nodes": [[["activation_77", 0, 0, {}], ["activation_78", 0, 0, {}]]]}, {"name": "lambda_9", "class_name": "Lambda", "config": {"name": "lambda_9", "trainable": true, "dtype": "float32", "function": ["4wEAAAAAAAAAAQAAAAUAAAATAAAAcxIAAAB0AGoBagJ8AIgAZAFkAo0DUwApA05UKQHaDWFsaWdu\nX2Nvcm5lcnMpA9oCdGbaBWltYWdl2hdyZXNpemVfbmVhcmVzdF9uZWlnaGJvcikB2gF0KQHaBXNo\nYXBlqQD6HzxpcHl0aG9uLWlucHV0LTEzLTc5MjhiYmZiZjFhYT7aCDxsYW1iZGE+OQAAAPMAAAAA\n", null, [[16, 16]]], "function_type": "lambda", "output_shape": null, "output_shape_type": "raw", "arguments": {}}, "inbound_nodes": [[["activation_76", 0, 0, {}]]]}, {"name": "global_average_pooling2d_9", "class_name": "GlobalAveragePooling2D", "config": {"name": "global_average_pooling2d_9", "trainable": true, "dtype": "float32", "data_format": "channels_last"}, "inbound_nodes": [[["activation_70", 0, 0, {}]]]}, {"name": "feat32_sum", "class_name": "Add", "config": {"name": "feat32_sum", "trainable": true, "dtype": "float32"}, "inbound_nodes": [[["multiply_8", 0, 0, {}], ["lambda_9", 0, 0, {}]]]}, {"name": "reshape_9", "class_name": "Reshape", "config": {"name": "reshape_9", "trainable": true, "dtype": "float32", "target_shape": [1, 1, 128]}, "inbound_nodes": [[["global_average_pooling2d_9", 0, 0, {}]]]}, {"name": "lambda_10", "class_name": "Lambda", "config": {"name": "lambda_10", "trainable": true, "dtype": "float32", "function": ["4wEAAAAAAAAAAQAAAAUAAAATAAAAcxIAAAB0AGoBagJ8AIgAZAFkAo0DUwApA05UKQHaDWFsaWdu\nX2Nvcm5lcnMpA9oCdGbaBWltYWdl2hdyZXNpemVfbmVhcmVzdF9uZWlnaGJvcikB2gF0KQHaBXNo\nYXBlqQD6HzxpcHl0aG9uLWlucHV0LTEzLTc5MjhiYmZiZjFhYT7aCDxsYW1iZGE+OQAAAPMAAAAA\n", null, [[32, 32]]], "function_type": "lambda", "output_shape": null, "output_shape_type": "raw", "arguments": {}}, "inbound_nodes": [[["feat32_sum", 0, 0, {}]]]}, {"name": "cp.arm16.conv_atten", "class_name": "Conv2D", "config": {"name": "cp.arm16.conv_atten", "trainable": true, "dtype": "float32", "filters": 128, "kernel_size": [1, 1], "strides": [1, 1], "padding": "valid", "data_format": "channels_last", "dilation_rate": [1, 1], "activation": "linear", "use_bias": false, "kernel_initializer": {"class_name": "VarianceScaling", "config": {"scale": 1.0, "mode": "fan_avg", "distribution": "uniform", "seed": null}}, "bias_initializer": {"class_name": "Zeros", "config": {}}, "kernel_regularizer": null, "bias_regularizer": null, "activity_regularizer": null, "kernel_constraint": null, "bias_constraint": null}, "inbound_nodes": [[["reshape_9", 0, 0, {}]]]}, {"name": "zero_padding2d_61", "class_name": "ZeroPadding2D", "config": {"name": "zero_padding2d_61", "trainable": true, "dtype": "float32", "padding": [[1, 1], [1, 1]], "data_format": "channels_last"}, "inbound_nodes": [[["lambda_10", 0, 0, {}]]]}, {"name": "cp.arm16.bn_atten", "class_name": "BatchNormalization", "config": {"name": "cp.arm16.bn_atten", "trainable": true, "dtype": "float32", "axis": -1, "momentum": 0.99, "epsilon": 1e-05, "center": true, "scale": true, "beta_initializer": {"class_name": "Zeros", "config": {}}, "gamma_initializer": {"class_name": "Ones", "config": {}}, "moving_mean_initializer": {"class_name": "Zeros", "config": {}}, "moving_variance_initializer": {"class_name": "Ones", "config": {}}, "beta_regularizer": null, "gamma_regularizer": null, "beta_constraint": null, "gamma_constraint": null}, "inbound_nodes": [[["cp.arm16.conv_atten", 0, 0, {}]]]}, {"name": "cp.conv_head32.conv", "class_name": "Conv2D", "config": {"name": "cp.conv_head32.conv", "trainable": true, "dtype": "float32", "filters": 128, "kernel_size": [3, 3], "strides": [1, 1], "padding": "valid", "data_format": "channels_last", "dilation_rate": [1, 1], "activation": "linear", "use_bias": false, "kernel_initializer": {"class_name": "VarianceScaling", "config": {"scale": 1.0, "mode": "fan_avg", "distribution": "uniform", "seed": null}}, "bias_initializer": {"class_name": "Zeros", "config": {}}, "kernel_regularizer": null, "bias_regularizer": null, "activity_regularizer": null, "kernel_constraint": null, "bias_constraint": null}, "inbound_nodes": [[["zero_padding2d_61", 0, 0, {}]]]}, {"name": "activation_71", "class_name": "Activation", "config": {"name": "activation_71", "trainable": true, "dtype": "float32", "activation": "sigmoid"}, "inbound_nodes": [[["cp.arm16.bn_atten", 0, 0, {}]]]}, {"name": "cp.conv_head32.bn", "class_name": "BatchNormalization", "config": {"name": "cp.conv_head32.bn", "trainable": true, "dtype": "float32", "axis": -1, "momentum": 0.99, "epsilon": 1e-05, "center": true, "scale": true, "beta_initializer": {"class_name": "Zeros", "config": {}}, "gamma_initializer": {"class_name": "Ones", "config": {}}, "moving_mean_initializer": {"class_name": "Zeros", "config": {}}, "moving_variance_initializer": {"class_name": "Ones", "config": {}}, "beta_regularizer": null, "gamma_regularizer": null, "beta_constraint": null, "gamma_constraint": null}, "inbound_nodes": [[["cp.conv_head32.conv", 0, 0, {}]]]}, {"name": "multiply_7", "class_name": "Multiply", "config": {"name": "multiply_7", "trainable": true, "dtype": "float32"}, "inbound_nodes": [[["activation_70", 0, 0, {}], ["activation_71", 0, 0, {}]]]}, {"name": "activation_79", "class_name": "Activation", "config": {"name": "activation_79", "trainable": true, "dtype": "float32", "activation": "relu"}, "inbound_nodes": [[["cp.conv_head32.bn", 0, 0, {}]]]}, {"name": "feat16_sum", "class_name": "Add", "config": {"name": "feat16_sum", "trainable": true, "dtype": "float32"}, "inbound_nodes": [[["multiply_7", 0, 0, {}], ["activation_79", 0, 0, {}]]]}, {"name": "lambda_11", "class_name": "Lambda", "config": {"name": "lambda_11", "trainable": true, "dtype": "float32", "function": ["4wEAAAAAAAAAAQAAAAUAAAATAAAAcxIAAAB0AGoBagJ8AIgAZAFkAo0DUwApA05UKQHaDWFsaWdu\nX2Nvcm5lcnMpA9oCdGbaBWltYWdl2hdyZXNpemVfbmVhcmVzdF9uZWlnaGJvcikB2gF0KQHaBXNo\nYXBlqQD6HzxpcHl0aG9uLWlucHV0LTEzLTc5MjhiYmZiZjFhYT7aCDxsYW1iZGE+OQAAAPMAAAAA\n", null, [[64, 64]]], "function_type": "lambda", "output_shape": null, "output_shape_type": "raw", "arguments": {}}, "inbound_nodes": [[["feat16_sum", 0, 0, {}]]]}, {"name": "zero_padding2d_62", "class_name": "ZeroPadding2D", "config": {"name": "zero_padding2d_62", "trainable": true, "dtype": "float32", "padding": [[1, 1], [1, 1]], "data_format": "channels_last"}, "inbound_nodes": [[["lambda_11", 0, 0, {}]]]}, {"name": "cp.conv_head16.conv", "class_name": "Conv2D", "config": {"name": "cp.conv_head16.conv", "trainable": true, "dtype": "float32", "filters": 128, "kernel_size": [3, 3], "strides": [1, 1], "padding": "valid", "data_format": "channels_last", "dilation_rate": [1, 1], "activation": "linear", "use_bias": false, "kernel_initializer": {"class_name": "VarianceScaling", "config": {"scale": 1.0, "mode": "fan_avg", "distribution": "uniform", "seed": null}}, "bias_initializer": {"class_name": "Zeros", "config": {}}, "kernel_regularizer": null, "bias_regularizer": null, "activity_regularizer": null, "kernel_constraint": null, "bias_constraint": null}, "inbound_nodes": [[["zero_padding2d_62", 0, 0, {}]]]}, {"name": "cp.conv_head16.bn", "class_name": "BatchNormalization", "config": {"name": "cp.conv_head16.bn", "trainable": true, "dtype": "float32", "axis": -1, "momentum": 0.99, "epsilon": 1e-05, "center": true, "scale": true, "beta_initializer": {"class_name": "Zeros", "config": {}}, "gamma_initializer": {"class_name": "Ones", "config": {}}, "moving_mean_initializer": {"class_name": "Zeros", "config": {}}, "moving_variance_initializer": {"class_name": "Ones", "config": {}}, "beta_regularizer": null, "gamma_regularizer": null, "beta_constraint": null, "gamma_constraint": null}, "inbound_nodes": [[["cp.conv_head16.conv", 0, 0, {}]]]}, {"name": "activation_80", "class_name": "Activation", "config": {"name": "activation_80", "trainable": true, "dtype": "float32", "activation": "relu"}, "inbound_nodes": [[["cp.conv_head16.bn", 0, 0, {}]]]}, {"name": "concatenate_3", "class_name": "Concatenate", "config": {"name": "concatenate_3", "trainable": true, "dtype": "float32", "axis": -1}, "inbound_nodes": [[["activation_65", 0, 0, {}], ["activation_80", 0, 0, {}]]]}, {"name": "ffm.convblk.conv", "class_name": "Conv2D", "config": {"name": "ffm.convblk.conv", "trainable": true, "dtype": "float32", "filters": 256, "kernel_size": [1, 1], "strides": [1, 1], "padding": "valid", "data_format": "channels_last", "dilation_rate": [1, 1], "activation": "linear", "use_bias": false, "kernel_initializer": {"class_name": "VarianceScaling", "config": {"scale": 1.0, "mode": "fan_avg", "distribution": "uniform", "seed": null}}, "bias_initializer": {"class_name": "Zeros", "config": {}}, "kernel_regularizer": null, "bias_regularizer": null, "activity_regularizer": null, "kernel_constraint": null, "bias_constraint": null}, "inbound_nodes": [[["concatenate_3", 0, 0, {}]]]}, {"name": "ffm.convblk.bn", "class_name": "BatchNormalization", "config": {"name": "ffm.convblk.bn", "trainable": true, "dtype": "float32", "axis": -1, "momentum": 0.99, "epsilon": 1e-05, "center": true, "scale": true, "beta_initializer": {"class_name": "Zeros", "config": {}}, "gamma_initializer": {"class_name": "Ones", "config": {}}, "moving_mean_initializer": {"class_name": "Zeros", "config": {}}, "moving_variance_initializer": {"class_name": "Ones", "config": {}}, "beta_regularizer": null, "gamma_regularizer": null, "beta_constraint": null, "gamma_constraint": null}, "inbound_nodes": [[["ffm.convblk.conv", 0, 0, {}]]]}, {"name": "activation_81", "class_name": "Activation", "config": {"name": "activation_81", "trainable": true, "dtype": "float32", "activation": "relu"}, "inbound_nodes": [[["ffm.convblk.bn", 0, 0, {}]]]}, {"name": "global_average_pooling2d_12", "class_name": "GlobalAveragePooling2D", "config": {"name": "global_average_pooling2d_12", "trainable": true, "dtype": "float32", "data_format": "channels_last"}, "inbound_nodes": [[["activation_81", 0, 0, {}]]]}, {"name": "reshape_12", "class_name": "Reshape", "config": {"name": "reshape_12", "trainable": true, "dtype": "float32", "target_shape": [1, 1, 256]}, "inbound_nodes": [[["global_average_pooling2d_12", 0, 0, {}]]]}, {"name": "ffm.conv1", "class_name": "Conv2D", "config": {"name": "ffm.conv1", "trainable": true, "dtype": "float32", "filters": 64, "kernel_size": [1, 1], "strides": [1, 1], "padding": "valid", "data_format": "channels_last", "dilation_rate": [1, 1], "activation": "linear", "use_bias": false, "kernel_initializer": {"class_name": "VarianceScaling", "config": {"scale": 1.0, "mode": "fan_avg", "distribution": "uniform", "seed": null}}, "bias_initializer": {"class_name": "Zeros", "config": {}}, "kernel_regularizer": null, "bias_regularizer": null, "activity_regularizer": null, "kernel_constraint": null, "bias_constraint": null}, "inbound_nodes": [[["reshape_12", 0, 0, {}]]]}, {"name": "activation_82", "class_name": "Activation", "config": {"name": "activation_82", "trainable": true, "dtype": "float32", "activation": "relu"}, "inbound_nodes": [[["ffm.conv1", 0, 0, {}]]]}, {"name": "ffm.conv2", "class_name": "Conv2D", "config": {"name": "ffm.conv2", "trainable": true, "dtype": "float32", "filters": 256, "kernel_size": [1, 1], "strides": [1, 1], "padding": "valid", "data_format": "channels_last", "dilation_rate": [1, 1], "activation": "linear", "use_bias": false, "kernel_initializer": {"class_name": "VarianceScaling", "config": {"scale": 1.0, "mode": "fan_avg", "distribution": "uniform", "seed": null}}, "bias_initializer": {"class_name": "Zeros", "config": {}}, "kernel_regularizer": null, "bias_regularizer": null, "activity_regularizer": null, "kernel_constraint": null, "bias_constraint": null}, "inbound_nodes": [[["activation_82", 0, 0, {}]]]}, {"name": "activation_83", "class_name": "Activation", "config": {"name": "activation_83", "trainable": true, "dtype": "float32", "activation": "sigmoid"}, "inbound_nodes": [[["ffm.conv2", 0, 0, {}]]]}, {"name": "multiply_9", "class_name": "Multiply", "config": {"name": "multiply_9", "trainable": true, "dtype": "float32"}, "inbound_nodes": [[["activation_81", 0, 0, {}], ["activation_83", 0, 0, {}]]]}, {"name": "add_27", "class_name": "Add", "config": {"name": "add_27", "trainable": true, "dtype": "float32"}, "inbound_nodes": [[["activation_81", 0, 0, {}], ["multiply_9", 0, 0, {}]]]}, {"name": "zero_padding2d_63", "class_name": "ZeroPadding2D", "config": {"name": "zero_padding2d_63", "trainable": true, "dtype": "float32", "padding": [[1, 1], [1, 1]], "data_format": "channels_last"}, "inbound_nodes": [[["add_27", 0, 0, {}]]]}, {"name": "conv_out.conv.conv", "class_name": "Conv2D", "config": {"name": "conv_out.conv.conv", "trainable": true, "dtype": "float32", "filters": 256, "kernel_size": [3, 3], "strides": [1, 1], "padding": "valid", "data_format": "channels_last", "dilation_rate": [1, 1], "activation": "linear", "use_bias": false, "kernel_initializer": {"class_name": "VarianceScaling", "config": {"scale": 1.0, "mode": "fan_avg", "distribution": "uniform", "seed": null}}, "bias_initializer": {"class_name": "Zeros", "config": {}}, "kernel_regularizer": null, "bias_regularizer": null, "activity_regularizer": null, "kernel_constraint": null, "bias_constraint": null}, "inbound_nodes": [[["zero_padding2d_63", 0, 0, {}]]]}, {"name": "conv_out.conv.bn", "class_name": "BatchNormalization", "config": {"name": "conv_out.conv.bn", "trainable": true, "dtype": "float32", "axis": -1, "momentum": 0.99, "epsilon": 1e-05, "center": true, "scale": true, "beta_initializer": {"class_name": "Zeros", "config": {}}, "gamma_initializer": {"class_name": "Ones", "config": {}}, "moving_mean_initializer": {"class_name": "Zeros", "config": {}}, "moving_variance_initializer": {"class_name": "Ones", "config": {}}, "beta_regularizer": null, "gamma_regularizer": null, "beta_constraint": null, "gamma_constraint": null}, "inbound_nodes": [[["conv_out.conv.conv", 0, 0, {}]]]}, {"name": "activation_84", "class_name": "Activation", "config": {"name": "activation_84", "trainable": true, "dtype": "float32", "activation": "relu"}, "inbound_nodes": [[["conv_out.conv.bn", 0, 0, {}]]]}, {"name": "conv_out.conv_out", "class_name": "Conv2D", "config": {"name": "conv_out.conv_out", "trainable": true, "dtype": "float32", "filters": 19, "kernel_size": [1, 1], "strides": [1, 1], "padding": "valid", "data_format": "channels_last", "dilation_rate": [1, 1], "activation": "linear", "use_bias": false, "kernel_initializer": {"class_name": "VarianceScaling", "config": {"scale": 1.0, "mode": "fan_avg", "distribution": "uniform", "seed": null}}, "bias_initializer": {"class_name": "Zeros", "config": {}}, "kernel_regularizer": null, "bias_regularizer": null, "activity_regularizer": null, "kernel_constraint": null, "bias_constraint": null}, "inbound_nodes": [[["activation_84", 0, 0, {}]]]}, {"name": "lambda_12", "class_name": "Lambda", "config": {"name": "lambda_12", "trainable": true, "dtype": "float32", "function": ["4wEAAAAAAAAAAQAAAAUAAAATAAAAcxIAAAB0AGoBagJ8AIgAZAFkAo0DUwApA05UKQHaDWFsaWdu\nX2Nvcm5lcnMpA9oCdGbaBWltYWdl2g9yZXNpemVfYmlsaW5lYXIpAdoBdCkB2gVzaGFwZakA+h88\naXB5dGhvbi1pbnB1dC0xMy03OTI4YmJmYmYxYWE+2gg8bGFtYmRhPjsAAADzAAAAAA==\n", null, [[512, 512]]], "function_type": "lambda", "output_shape": null, "output_shape_type": "raw", "arguments": {}}, "inbound_nodes": [[["conv_out.conv_out", 0, 0, {}]]]}], "input_layers": [["input_3", 0, 0]], "output_layers": [["lambda_12", 0, 0]]}, "keras_version": "2.3.1", "backend": "tensorflow"}